BigPro/data.pth (torch, 5655 bytes, 6 tensors)

l1.weight f4 [8, 67]
000000 a5 55 3a be 60 5b ea 3e 7f b1 f5 3d 2a 34 1d 3e
       -0.18196733 0.4577284 0.11996745 0.1535193
000010 7c e1 3a 3e f5 74 74 3e ae 9f 4e 3e 6c 0f 44 3e
       0.18250078 0.2387274 0.201781 0.19146508
000020 42 e4 93 3e 19 70 0a bd 76 61 4e 3e a9 40 0c 3e
       0.28885084 -0.03379831 0.20154366 0.13696541
000030 d3 e1 4a 3e 9c 09 86 3e 54 70 07 be f6 7b 79 3e
       0.19812708 0.26179206 -0.13226444 0.24363694
000040 e9 ca e5 3e 11 b3 c3 3e 7f 94 16 3e 73 81 ac 3e
       0.4488137 0.38222554 0.14705084 0.33692512
000050 82 1b 6a 3e 0e 10 c0 3d b0 d9 26 be 23 9f 69 3d
       0.22862056 0.09378062 -0.16293979 0.05703653
000060 89 2c b5 bd f6 3a 6a 3e df c5 19 be 0d dd 6f 3d
       -0.08846385 0.22874054 -0.15016888 0.05856042
000070 4d a1 dd 3e 32 00 01 3e e7 f3 33 3f 0b 0e 2d 3e
       0.43287125 0.12597731 0.7029404 0.16899888
000080 5f e5 0c bf 88 cc 4a 3e ec 4d a3 3e ad 0a e8 3e
       -0.5503749 0.19804585 0.31895387 0.45320645
000090 36 b9 02 3e 72 33 1b be 98 07 1c be aa b1 0a 3e
       0.12765965 -0.15156344 -0.15237272 0.13544336
0000a0 7e 65 a3 3d 5e 38 0d 3f 09 c4 ec 3e 82 8e dc 3e
       0.079783425 0.55164135 0.46243313 0.43077475
0000b0 07 05 90 3d c2 fc 71 be 28 60 65 3e 8b 13 e1 bb
       0.07032209 -0.23631576 0.22399962 -0.006868785
0000c0 04 3a 59 3e 45 31 d9 3d 23 0f 4e 3e 36 c4 25 3d
       0.21213537 0.106051005 0.20122962 0.040470324
0000d0 1a a9 b0 3d c3 68 3c bd 01 76 3f bd 1d 14 cc 3e
       0.086260036 -0.045998346 -0.046743397 0.39859095
0000e0 45 7b ac 3e b3 41 00 3f c2 19 2e 3e 03 82 d8 be
       0.33687797 0.5010025 0.17002013 -0.4228669
0000f0 62 69 c7 bd 08 1f d1 3d 58 5e b3 3d 7c 37 ad 3d
       -0.09736897 0.10210997 0.08758229 0.084578484
000100 50 be e5 3e 84 61 ea 3e 24 7d ac 3d d3 d2 31 bd
       0.4487176 0.45777524 0.08422306 -0.04341395
000110 2d 52 96 3e ed eb 91 3e e9 ce d5 bd 67 ba a6 3e
       0.2935957 0.2850031 -0.104398556 0.3256409
000120 c1 89 dc 3d b1 57 43 be 1b 24 a3 be 4b cf 46 be
       0.10768462 -0.1907642 -0.31863484 -0.19415013
000130 2a 76 ce 3e 4b a1 43 be ab b8 e2 3e d4 fa 20 be
       0.40324527 -0.19104497 0.44281515 -0.15720683
000140 6b 6c 84 3d 2c e6 88 3e 82 59 cd bd da 1c 1c 3e
       0.064659916 0.26738107 -0.10026838 0.15245381
000150 93 22 83 be a2 b6 ce bc 45 03 66 3e ff e2 10 be
       -0.25612316 -0.02523357 0.22462185 -0.14149092
000160 01 18 b1 3e e3 30 d1 3e b3 39 a3 3e bc ad 61 be
       0.34588626 0.4085761 0.3187996 -0.2203893
000170 47 d8 60 be 48 40 1f 3f c6 41 c6 3e a0 f2 17 be
       -0.21957503 0.6220746 0.38722056 -0.14838648
000180 00 10 63 bd 94 56 9e 3e 17 b1 53 3e 4b b3 e5 3e
       -0.05543518 0.3092543 0.20673023 0.44863352
000190 68 77 0e be c0 37 ff bd eb ee 91 3e d5 0e cd 3e
       -0.13912737 -0.12461805 0.28502592 0.40050378
0001a0 67 99 b5 bd b8 fb 0f 3f b6 a8 36 be 35 59 46 be
       -0.0886715 0.5624347 -0.17837796 -0.19369967
0001b0 40 dc d7 3e ec 8f 92 be bb 49 98 be 7e c5 53 bb
       0.42160225 -0.2862543 -0.29743752 -0.003231376
0001c0 42 d5 af 3e 55 04 37 be 6a cd c5 3e b0 bc d3 bd
       0.3434239 -0.17872746 0.3863328 -0.10338724
0001d0 b3 74 b6 3e 2f 46 45 3c c6 02 2f 3d e7 38 c7 3e
       0.3563591 0.012040659 0.042727254 0.389106
0001e0 cf 0d d7 3e 3d 8c 15 3f df ff 0e be 5b 23 35 3e
       0.42002723 0.5841711 -0.13964795 0.17689268
0001f0 8b 9c a1 3e 1b f9 2e be 25 d1 05 bf 95 67 78 be
       0.31564745 -0.17087214 -0.52272254 -0.24258263
000200 85 56 ca bc 72 bd 92 bd 0b 8f b7 3d f2 e3 93 bc
       -0.024699459 -0.0716504 0.0896283 -0.018053029
000210 30 40 67 3c 65 0d 9a bd 2d 1e ef 3e de a2 e5 bd
       0.014114425 -0.07522086 0.4670271 -0.11212705
000220 b0 e8 79 3e 93 69 26 be 31 4e c1 3d ef ab ea 3b
       0.2440517 -0.16251211 0.09438742 0.0071616094
000230 10 ce 8a bd 35 82 6d be 65 cb 02 be 33 a6 8c 3d
       -0.067775846 -0.23194201 -0.12772901 0.068676375
000240 c5 76 94 bd ba ec 2c 3e ff c2 06 be 73 b0 3c bd
       -0.07249216 0.16887179 -0.13160323 -0.046066713
000250 c8 d3 b3 3e a9 6d 57 be d2 0b b6 be 9b 76 99 be
       0.35122514 -0.21037926 -0.35555893 -0.299733
000260 22 e5 da 3a 63 63 8c be 65 b5 23 be 0d 7b 7c 3e
       0.0016700367 -0.27419576 -0.15987165 0.24656315
000270 9d be 24 3f f2 bd 0a 3f be 1d f0 3e 4a 7f 2e be
       0.6435335 0.54196084 0.4689769 -0.17040744
000280 30 49 dd 3e ca 50 12 3f f6 67 af be 73 e3 e6 bd
       0.432199 0.57154524 -0.34259003 -0.11273851
000290 82 76 cc be c7 af 6e 3e c7 3f a6 3e 57 34 3f be
       -0.39934164 0.23309241 0.32470533 -0.1867231
0002a0 28 fb e0 bd 4c 8d b9 be 03 c9 d4 3e aa 6d bd 3e
       -0.10985404 -0.36240613 0.4155961 0.3699773
0002b0 46 53 ff 3e 79 26 37 be bb a3 51 be 5e e5 b4 be
       0.4986822 -0.1788577 -0.20472614 -0.35331243
0002c0 fd 52 cf be 33 2a 9e be 7b a1 80 bd 99 17 d8 3e
       -0.40493003 -0.3089157 -0.062808 0.42205504
0002d0 c4 56 7f bd ad 30 16 3f 5c 0c a9 bc 4e 82 90 3e
       -0.062338606 0.58668023 -0.020635776 0.28224415
0002e0 17 7e 56 3d e5 f8 db 3d 11 b9 b0 3e f0 7c 1b 3f
       0.052366342 0.10740832 0.34516194 0.60737514
0002f0 b2 0a f5 3e f8 44 ac bd c8 10 73 be c2 d5 76 be
       0.47859722 -0.08411592 -0.2373687 -0.2410498
000300 86 4a cf bd 9f 1c 25 3f 1d 57 83 3e 27 85 c2 bc
       -0.10121636 0.644968 0.256524 -0.023745133
000310 c9 80 dd bd 52 4d 30 bd 3e ed 19 be 5d 38 61 be
       -0.108155794 -0.04304249 -0.15031907 -0.21994157
000320 c0 1a fd 3d bd 9d 79 be 59 2b 84 3e 53 60 b6 3e
       0.12358618 -0.24376579 0.25814322 0.35620365
000330 e0 5e 6c 3e 1b 72 81 3e 28 40 29 3f 79 eb 8a 3e
       0.23083067 0.25282368 0.6611352 0.27132776
000340 b4 46 e7 be b7 f3 bd 3e 29 e5 fa be fc 1f e0 be
       -0.4517113 0.37100002 -0.4900296 -0.43774402
000350 d4 f2 0d bf 11 c7 c5 bd 26 3f bc bd 20 06 42 3e
       -0.5544865 -0.096571095 -0.09191732 0.18947649
000360 f7 bc 78 3e 59 94 a5 3e 60 e6 31 3e f2 e5 3f bd
       0.24290834 0.32339743 0.17373037 -0.046850152
000370 b1 c2 a3 3e 6c de c7 3d f8 f1 0d bf f8 a8 3a 3f
       0.31984475 0.097592205 -0.5544734 0.72914076
000380 16 a0 d9 3e fb 18 a5 bd 6f c6 f3 3e 62 ed ef 3e
       0.42504948 -0.08061405 0.4761233 0.46860796
000390 a2 95 f1 3e 32 89 1d 3e f9 05 97 3e f9 e8 ab 3e
       0.47184473 0.15384367 0.29496744 0.33576182
0003a0 9e 01 80 be af 11 e4 3e 14 57 df bd bb 53 bd 3e
       -0.25001234 0.44544742 -0.10905281 0.36977944
0003b0 af f3 b0 3e df b7 97 be 23 ae be bc a9 c4 0e 3f
       0.34560916 -0.2963247 -0.023276394 0.5576883
0003c0 22 7a 86 ba 8f a1 93 3e 8c fd f5 3e d9 f2 8c 3d
       -0.0010259787 0.28834197 0.48045003 0.06882257
0003d0 7b 61 aa 3d 76 c6 75 be a4 04 93 3e 42 6e 82 3e
       0.08319374 -0.24001488 0.28714478 0.25474745
0003e0 37 b5 0c 3f bf fb f3 bd 92 e4 9b be f4 60 b6 bd
       0.5496401 -0.11913251 -0.30447823 -0.08905211
0003f0 39 05 02 be d2 5b 93 be 4f 24 f0 3e 27 af e1 3e
       -0.12697305 -0.2878099 0.469027 0.44078943

l1.bias f4 [8]
000000 f7 66 bc 3e 37 0d 79 3f c5 8c 8d 3f c3 f5 0d 3f
       0.36797306 0.9728579 1.1058584 0.5545313
000010 9d 5b 2b 3f 7d 9a f1 3e b9 ac 1a 3f 02 c9 56 3f
       0.66936666 0.47188178 0.60419804 0.83900464

l2.weight f4 [8, 8]
000000 a0 bb 05 bf 17 78 60 3f 4b a4 b4 3f 5b 67 3f 3f
       -0.5223942 0.8768324 1.4112638 0.7476708
000010 7e 2d 73 3d a3 cd 8f 3e d0 47 76 bf e8 1a 97 3f
       0.059369557 0.28086576 -0.9620333 1.1805086
000020 00 0e 48 3f c0 82 9f 3f 17 69 10 3f 3d 99 5c 3f
       0.7814636 1.2461777 0.56410354 0.86171323
000030 ef df 1f bf 3f a0 b0 3f 31 d6 90 3f df 38 d0 be
       -0.6245107 1.3798903 1.1315366 -0.4066839
000040 1f b6 b0 be 45 ff 0d 3e 5f 3f f7 3e c1 d0 87 bf
       -0.34513947 0.13866909 0.48290536 -1.0610582
000050 c0 07 84 3f 0d 72 ac bf 19 24 2a 3f a9 8b 3b 3f
       1.0314865 -1.3472306 0.6646133 0.7325998
000060 41 75 87 3f a9 2b 00 3e 2f 78 8f bf ff dc 4d 3f
       1.0582658 0.12516655 -1.1208552 0.8041534
000070 bd 77 36 3f a7 c8 08 bf dd 06 ab bd 24 32 55 3f
       0.71276456 -0.5343117 -0.083509184 0.83279634
000080 c8 8e 22 3f 6d 87 6d 3f 0f 7b 6e 3e e0 5f 22 be
       0.63499117 0.9278477 0.2328913 -0.15856886
000090 58 f4 25 3e 80 fb 96 bf 15 4e 79 3f a2 ff 0e bf
       0.16206491 -1.1795502 0.9738477 -0.55858815
0000a0 00 28 98 3b 6e b1 0d be be 4f bb be 1f 1b 87 3d
       0.0046434402 -0.13837215 -0.36584276 0.0659697
0000b0 e0 b3 56 be b4 b6 8e bd dd 81 12 3e de 5b 01 3e
       -0.20967054 -0.069684416 0.14307351 0.12632701
0000c0 66 e6 40 bd d9 32 46 3e c5 03 7a 3e d1 e0 2a bd
       -0.047094725 0.19355334 0.244155 -0.041718308
0000d0 6d ac 2e be 6e bf fc 3d f9 a2 b4 be 8a 11 d0 be
       -0.17057963 0.123412 -0.35280588 -0.4063838
0000e0 89 c0 d1 bd 56 a6 bd 3d 50 71 9e 3e 41 9a c0 be
       -0.10241801 0.09260242 0.30945826 -0.37617686
0000f0 8c 14 59 be b0 f1 e2 3d 7d 70 21 be ad ba 17 be
       -0.21199244 0.110812545 -0.15765567 -0.14817305

l2.bias f4 [8]
000000 39 32 e8 3e 44 a6 29 3e b4 01 cc 3e 23 9f f8 bd
       0.45350817 0.16567332 0.3984505 -0.12139728
000010 8c fe b6 bc 50 64 74 be 8b 13 b8 be 25 26 4c be
       -0.022338174 -0.23866391 -0.3595241 -0.19936426

l3.weight f4 [7, 8]
000000 de 4a 05 be 18 c3 f3 be 48 81 61 bf 47 de 72 3f
       -0.13016841 -0.47609782 -0.8808789 0.9487042
000010 8c b2 6c bf 35 26 83 3d fd 9e 7f 3d 74 e7 6f 3e
       -0.9245994 0.06403772 0.062407482 0.23428136
000020 a8 4b a8 bf 21 f8 83 3e 76 0f c4 bf d5 53 c2 3e
       -1.3148088 0.25775245 -1.5317218 0.37954584
000030 c5 68 30 3f 61 be bc be 00 72 82 bd 54 9b 5b be
       0.68909866 -0.36863998 -0.063694 -0.21445972
000040 20 99 10 bf 31 5a fd 3d d0 e7 e3 3e 30 c8 bb bf
       -0.5648365 0.12370718 0.44512796 -1.4670467
000050 84 5d 2f 3f da 4b 28 bd fe 51 6e be 55 59 be be
       0.6850207 -0.041087963 -0.23273465 -0.3717753
000060 f5 40 3d 3f 42 82 57 3e 72 3f bf bf c8 26 30 bf
       0.7392724 0.21045783 -1.4941237 -0.68809175
000070 16 11 7d bf 62 7b 42 3e 3d 87 72 be dd 7e 5a be
       -0.98854196 0.1899238 -0.23684402 -0.21337457
000080 4a ec b7 bf 96 ac 8c bf 38 cf 18 3f e0 e0 e9 3e
       -1.4368985 -1.0990169 0.5969119 0.45679379
000090 79 f6 72 bd 05 85 c2 3d 93 1c aa bd 91 b1 59 3e
       -0.059317086 0.09498028 -0.08306231 0.21259142
0000a0 09 5c b1 bf fb ec 5e 3f 39 01 95 bf 6f 34 5d bf
       -1.3856212 0.87080353 -1.1640998 -0.8640813
0000b0 f0 d9 88 bf 1b 8e 0a be bd 63 8c 3e ce e3 ac 3d
       -1.0691509 -0.13530771 0.27419844 0.08441888
0000c0 58 45 cc 3e a1 c6 95 bf 78 55 21 3f 9b a2 0e bf
       0.39896655 -1.1701242 0.6302104 -0.55716866
0000d0 74 20 92 bf 23 d2 b8 be 31 f5 03 3e 29 7f 0b be
       -1.1416154 -0.36097822 0.12886502 -0.13622727

l3.bias f4 [7]
000000 13 10 9a 3d 03 3a bc be 19 77 66 3e 4b fd c7 3e
       0.07522597 -0.3676301 0.2250637 0.39060435
000010 06 75 9d bc 4f 12 9c 3e 0f de 43 3e
       -0.01922084 0.30482718 0.19127677
